DL_Code/test.pth (torch, 7185 bytes, 14 tensors)

layers.0.linearblock.0.weight f4 [10, 6]
00000000: bfa2 45be 658b 283d 1ae9 2f3e 235c e43d
00000010: 966d a1be 143a 0ebe 1d8b 34bd ebb0 013e
00000020: 6406 a8bd 22a4 d1be 1287 98bc 9274 2fbe
00000030: a70b 9a3e 75fb 9e3e 8d4d a83d 3187 96be
00000040: 1793 e43e bc1b 5f3e 6ab1 c5be b214 f73c
00000050: ca14 3e3e 1cd6 a83e 8602 db3d 878b f83d
00000060: 7cc1 fc3d c4b7 fabe 13a5 813e 2277 c73c
00000070: ec5f d03c 19d7 eebc f41a 263c 9f37 c2bd
00000080: 3f84 22bd ce94 6c3c aa23 8abb 1286 f03e
00000090: 79fd db3d df04 58be f62f e73d 9d18 043f
000000a0: 2ad8 a1be ffaa d53e 885e af3d 891d 08bd
000000b0: b02c 5f3e 951d 31be 7316 debd 047a 233e
000000c0: 19aa 6bbc 1eb1 c43e f254 9cbe e1fc b4bd
000000d0: f6d0 d5bd a5ee 2abe b016 263e cc7f 533e
000000e0: c8f9 013f 1583 d73c 39ef d0bc 5db1 05be
-0.19300364 0.041148562 0.17178765 0.11150386 -0.3152892 -0.13889343 -0.04407798 0.12665145
-0.08204344 -0.40945536 -0.018619094 -0.17134312 0.30087015 0.3105122 0.08217917 -0.29400018
0.4464347 0.21787924 -0.3861192 0.030161235 0.18562618 0.32975852 0.10693841 0.12135988
0.12341592 -0.48968327 0.25321254 0.0243488 0.025436364 -0.0291553 0.010138262 -0.09483265
-0.0396769 0.014439775 -0.0042156773 0.46977288 0.107417054 -0.21095608 0.11288445 0.51600057
-0.31610233 0.41732022 0.08562952 -0.033231292 0.2179439 -0.17296441 -0.108441256 0.15964514
-0.014383816 0.3841638 -0.30533558 -0.08837295 -0.10440247 -0.16692598 0.16219592 0.2065422
0.5077176 0.026307622 -0.025504695 -0.1305594

layers.0.linearblock.2.weight f4 [10]
00000000: 09a7 693f d0c1 bf3f 0bc6 633f c653 803f
00000010: 2aea a23f 1ff3 a63f 810f b03f f842 5b3f
00000020: 88f7 b33f b42d 7e3f
0.912705 1.4981022 0.88974065 1.0025566 1.2727711 1.3042945 1.3754731 0.8564906
1.4059916 0.9928849

layers.0.linearblock.2.bias f4 [10]
00000000: c6a6 f1bd 50c9 4e3e 6a4f 0a3e dda6 4d3d
00000010: 8977 24be 04ba 31be b1fa 25be 0a05 f33d
00000020: d266 373e 6e00 03be
-0.11799388 0.20193982 0.13506857 0.05020796 -0.16061224 -0.17356116 -0.16208912 0.118661955
0.17910317 -0.12793133

layers.0.linearblock.2.running_mean f4 [10]
00000000: c17d 4b3e 7f97 8a3e b224 8f3e 998f 893e
00000010: 9076 853e 10a2 6b3e bcbe db3e 0972 dc3d
00000020: 6361 b23e 206a 2a3e
0.1987219 0.27068707 0.27957684 0.2686737 0.26067019 0.2301104 0.42918956 0.10763938
0.34839925 0.16642046

layers.0.linearblock.2.running_var f4 [10]
00000000: 1dfa a13d c9a6 5b3d 81bb 033e bf57 803e
00000010: b824 413e 092f 103e 69cc 183f 289d 2d3d
00000020: b347 aa3d 53a9 e63d
0.079090334 0.053625856 0.12864496 0.25066945 0.18861663 0.14080442 0.59686905 0.042386204
0.08314457 0.11262765

layers.1.weight f4 [1, 10]
00000000: 058e 273e 7196 bbbe 8b7f 0cbe 7300 c43d
00000010: 3d25 0e3f f18e cf3e 81e4 5e3e 99d5 d1bd
00000020: 29e4 debe aad7 253e
0.1636277 -0.36638215 -0.13720529 0.09570398 0.5552557 0.40538743 0.21766855 -0.10245819
-0.43533447 0.1619555

exp_avg f4 [10, 6]
00000000: cae7 b6bb 355f 02ba cb2a 83bb 175d 603b
00000010: d101 033c 156f 2a3a bd30 19bd 9135 63bc
00000020: bb7a ebba eb26 0b3a 0fcc 05bd 7415 c53b
00000030: 521f 093a 0dad 6439 571a 7d3a 28dc 763a
00000040: 33df 48b9 8f1e 803a 8815 c83b ff2e 993b
00000050: 6ac2 ee3b dab8 f23b e4ef b33b 461d 3e3a
00000060: dd5e 95ba ec19 573b 3fe6 8c3b 2d6e ba3b
00000070: 2f03 1e3b 4642 c43a 9897 653b 03ad 8bbb
00000080: 825b 563c 187a fdba 2440 823c 7c33 673a
00000090: 655e e4ba b312 aab8 a629 7d3b 7fd7 d63a
000000a0: 8e36 aa3b 76d9 9c3a 3ec3 61bc 9ed2 a9b7
000000b0: d9de ac3b 4a77 6c3c fffb b4bc 600f 4f3a
000000c0: c10f 38bd 2b24 16bd 1a03 62ba 8a80 70bc
000000d0: d046 8fbd bdb6 273d 43aa 8d3b 4b9e 75bb
000000e0: 6d43 b0b9 156b d739 9a9a 053c 71a4 ca3a
-0.0055818306 -0.00049732934 -0.004002904 0.0034235173 0.0079960385 0.0006501538 -0.037399996 -0.013867752
-0.0017965654 0.00053082284 -0.03266531 0.0060145203 0.00052308023 0.00021808241 0.0009655109 0.0009416961
-0.00019156635 0.0009774732 0.0061060824 0.004674792 0.0072863596 0.00740729 0.0054912437 0.0007252287
-0.0011396069 0.0032821847 0.0042999084 0.0056894035 0.0024110784 0.0014973364 0.0035032984 -0.004262568
0.013083341 -0.0019338755 0.015899725 0.00088196225 -0.0017423151 -8.109715e-05 0.003862956 0.0016391127
0.0051944917 0.0011966664 -0.0137794595 -2.0244446e-05 0.005275589 0.014432738 -0.022092817 0.00078987144
-0.0449369 -0.036655586 -0.0008621678 -0.014679084 -0.06995928 0.040945757 0.0043232753 -0.0037478383
-0.00033619572 0.00041087778 0.008154536 0.0015460384

exp_avg_sq f4 [10, 6]
00000000: 1158 e03a 133e e73a 9196 4c3a 59f0 103b
00000010: 5f08 ff3a aacb f63a 744b ec3c 7749 593c
00000020: addc 583b c21b a83a 221a f43c 7dd5 d33b
00000030: de46 c437 b7eb 1938 8d55 7637 c12b 5937
00000040: 65cd 3537 3851 1438 ec33 483a 1872 af3a
00000050: c7a4 613a 6118 ac3a 247b c23a 957a d03a
00000060: 12a7 053b e088 373a 8c99 b43a 4a2e d53a
00000070: 1ee1 ea3a 32f0 d13a e50c c13b 85bc 9d3a
00000080: 7519 433b 0e22 323b 8de5 553b c831 ab3a
00000090: 13e0 9d39 7db9 6239 170d 4e39 ace1 8a39
000000a0: 9a1c 7e39 032c 4239 855d 893c 8791 4f3c
000000b0: 908e f03b 7eaa 5b3b 2f1c 3d3c 5e09 663c
000000c0: d0af 493e bd90 f53d dc6b 083c e913 cf3d
000000d0: abc2 443e 8c59 1b3e 3396 9039 c85f 8a39
000000e0: 1219 6d39 734e 4b39 cef4 243a dc32 d138
0.001711609 0.0017642401 0.00078044186 0.0022115915 0.0019457451 0.0018829007 0.028844573 0.013262144
0.0033090517 0.0012825655 0.029797617 0.006464659 2.339802e-05 3.669757e-05 1.46826615e-05 1.2944395e-05
1.0836263e-05 3.536159e-05 0.00076371315 0.0013385443 0.00086076226 0.0013129824 0.0014837724 0.0015905673
0.002039377 0.0007001292 0.0013778671 0.0016264406 0.0017919873 0.0016017018 0.0058914297 0.0012034333
0.0029769812 0.0027180943 0.0032638044 0.0013061101 0.00030112322 0.0002162214 0.00019650567 0.0002648955
0.00024233983 0.00018517677 0.016768226 0.012668974 0.0073412135 0.003351837 0.011542364 0.014040319
0.19695973 0.11990497 0.008326497 0.101112194 0.19214885 0.15170878 0.00027577727 0.00026392774
0.0002261142 0.00019388813 0.0006292582 9.97537e-05

exp_avg f4 [10]
00000000: 1f89 88bb 2228 373b c713 683a e41f 503a
00000010: 98dd 253b 30fe 19ba 6c2a 4a3a 49e0 3239
00000020: c5b6 713b 877b 8839
-0.0041667367 0.0027947505 0.0008853045 0.00079393224 0.0025309082 -0.00058743637 0.000771201 0.00017058956
0.003688262 0.00026031976

exp_avg_sq f4 [10]
00000000: 7052 9339 36e9 033a 4ff3 6937 cad6 7339
00000010: 190e b739 c8b1 0a3a 6dde a738 88d9 8d39
00000020: ccf6 4b3a add0 1738
0.00028099446 0.00050320046 1.3944532e-05 0.00023254301 0.00034914984 0.00052907737 8.0046106e-05 0.0002705569
0.0007780611 3.619555e-05

exp_avg f4 [10]
00000000: ffbe b93b 8626 07bc 96c4 cd3a 8d0b f03b
00000010: eaca 0e3c a9b0 f23b c58b 873b 99a9 e9bb
00000020: f098 2ebc 479c 3c3b
0.0056685205 -0.008248931 0.0015698846 0.0073255957 0.008715371 0.0074063134 0.004136535 -0.0071308133
-0.01065658 0.0028779672

exp_avg_sq f4 [10]
00000000: 28b7 053a 701d 8e3a ca86 c437 9c02 393a
00000010: f647 a93a 7814 603a b300 9439 7ea8 2a3a
00000020: 6168 e43a 520f a538
0.000510084 0.0010842513 2.3427787e-05 0.0007057579 0.0012915123 0.0008547972 0.0002822928 0.00065100926
0.0017426127 7.870667e-05

exp_avg f4 [1, 10]
00000000: f24e 78bc 2735 c7bb 1d56 293c 0f0b 733b
00000010: b054 633b eea3 91bb c89b e43a bac0 ad3a
00000020: d945 dbbb 44bc f6b9
-0.015155541 -0.0060793343 0.010335472 0.003708545 0.003468793 -0.004444591 0.0017441446 0.001325629
-0.006691676 -0.00047061045

exp_avg_sq f4 [1, 10]
00000000: 2ebe 4d3b 6aa3 aa3b bc9e fe3a 5e23 3a3b
00000010: ee0a 1a3b 8b41 a53b d15e 493b a785 193b
00000020: edf9 a23b c58b 013b
0.0031393874 0.0052074688 0.0019425969 0.0028402428 0.002350505 0.0050432137 0.003072668 0.002342561
0.004973641 0.0019767147
